Models/Classification/webshell_detector_model_1706860356.9733982.pth (torch, 175332 bytes, 7 tensors)

conv1.weight f4 [32, 1, 3]
000000 91 b9 56 3f 22 4b ec be a7 42 f2 be 71 a7 10 3e
       0.838769 -0.46151072 -0.47316477 0.14126374
000010 45 0f 05 bf 9f a0 a2 3f 37 02 85 bd a4 be 3a 3f
       -0.51976424 1.2705268 -0.06494563 0.72947145
000020 e6 ed 1d 3f 53 f1 9c bf 14 e0 4b be 2f 57 0b 3f
       0.6169113 -1.2261146 -0.19909698 0.54429907
000030 60 f1 02 3c 83 02 f2 3e 90 09 e9 3d 94 d0 9b 3d
       0.007992119 0.4726754 0.11378777 0.076081425
000040 9e b6 f1 bc 63 8e 01 bd 8e 54 c9 be 78 8a ce 3e
       -0.029506024 -0.03162993 -0.39322323 0.40340018
000050 77 09 63 bf 0a f7 15 bf 3e c7 9c 3d 3a 90 9b be
       -0.8868632 -0.58580077 0.0765519 -0.30383474
000060 38 33 60 3f 0a 75 a4 bf 83 d4 32 be 79 46 3e 3e
       0.87578154 -1.2848217 -0.1746388 0.1858157
000070 8b 60 26 bf cd b3 bf be c9 7f f5 3e c3 f6 70 3f
       -0.6499106 -0.37441865 0.47949055 0.9412653
000080 ea fc 17 3f c7 0c b2 be 0e 9b c2 bf 06 7d c6 3e
       0.5937029 -0.34775373 -1.5203569 0.3876726
000090 9b 37 23 3f 43 20 11 3f 07 54 9d bf 29 44 9c bc
       0.6375672 0.5668985 -1.2291268 -0.01907547
0000a0 74 6f ce 3b 54 f0 58 bd b8 2e e5 be 1a 3c 97 3f
       0.0062999073 -0.05296357 -0.44762206 1.1815217
0000b0 8b d0 99 3e ef 5c ea be 7c 1a ee bd 6c 81 b6 3f
       0.30041918 -0.45774028 -0.11626145 1.4258246
0000c0 5d 2f 06 3f d4 e3 62 3e 48 bd 66 3f 9c 77 e4 3e
       0.5241602 0.22157222 0.9013257 0.44622505
0000d0 3c 1b 31 bf c1 6c 05 3f f8 57 ed 3d f7 ad c8 bc
       -0.6918218 0.5211907 0.11589044 -0.024497015
0000e0 07 14 71 3c 64 a0 ee 3c f8 25 22 3f f0 d9 94 be
       0.014714248 0.029129215 0.63339186 -0.29072523
0000f0 a7 2c 93 3d 36 a2 7f bd 14 32 f4 3b 15 ce 51 3f
       0.07186251 -0.062410556 0.007452259 0.8195508
000100 db fe 98 3f ea 1a 09 be fa cd c8 be 7f 1a 22 bf
       1.1952776 -0.13389173 -0.39219648 -0.6332168
000110 b4 0c 19 bf 2e a0 59 bd bb 90 9f 3c 29 5d fb bc
       -0.5978501 -0.053131275 0.019478193 -0.03068407
000120 3e 02 84 3f 07 47 79 3d 76 6b c6 be 69 6a 3e bf
       1.0313184 0.060858753 -0.3875386 -0.7438112
000130 c0 aa 07 3f c0 61 63 3f 00 e4 58 bd 6d 40 58 bc
       0.5299492 0.8882103 -0.052951813 -0.013198954
000140 3f f7 38 3d 07 8e ae 3f 45 43 95 be f5 ad 19 3f
       0.045157667 1.3637093 -0.29152885 0.6003106
000150 f0 a5 8b 3d ba fb 30 be 78 99 34 bf cb bf 76 bd
       0.068187594 -0.17283526 -0.70546675 -0.0602415
000160 fe 4b 39 3b 17 a9 e4 3c 4f 09 a2 3f ba 88 3a 3f
       0.0028274055 0.02791266 1.2659091 0.7286488
000170 b3 f4 fc 3e 6a 5b 4e bf 45 4c 81 3f 46 eb 40 bf
       0.4940544 -0.80608237 1.0101401 -0.75359

conv1.bias f4 [32]
000000 73 26 0e be ea 3b 45 be 6e 5c cb bd 13 a3 3b be
       -0.13881855 -0.19261137 -0.09929739 -0.18323927
000010 b0 3a 1e bd 59 2b af bc 58 d7 d2 bd 95 d2 a2 bd
       -0.038630188 -0.021382974 -0.1029498 -0.079503216
000020 fd 9c 61 be b8 8a b4 bd 00 24 a2 bd 0b 3f 5f be
       -0.22032543 -0.08815521 -0.07917023 -0.21801393
000030 16 0d 46 be 70 39 c6 3b d4 64 30 be 80 01 5d be
       -0.1934093 0.0060493276 -0.17225963 -0.21582603
000040 82 34 c9 bd a1 2b fa bd 50 57 28 39 14 09 96 bd
       -0.09824468 -0.12215353 0.00016054255 -0.0732595
000050 1d d2 7b 3c b6 8a 32 be 43 01 73 bd ff 2a 4a bc
       0.015369919 -0.17435727 -0.059327375 -0.012339353
000060 5a 13 07 be 61 04 33 be da 7c 07 3c 4e 26 3b be
       -0.13190976 -0.17482139 0.008269513 -0.18276331
000070 60 62 ad bd ee 34 5c bc 57 2f 12 be 8b a6 4a be
       -0.08466029 -0.013440354 -0.14275871 -0.19790094

conv2.weight f4 [16, 32, 3]
000000 bd e7 95 3e 2b e0 97 3e f2 0a f1 bd 65 57 69 3e
       0.29278365 0.29663214 -0.11769666 0.22787245
000010 eb d1 82 bd d5 95 ef bc 10 69 f5 3e 0e 7a 88 3e
       -0.06387695 -0.02924625 0.4793172 0.2665562
000020 4e 3b 32 bf 92 7b 51 bf 28 d1 cf be ed 9f f5 3c
       -0.6962174 -0.8182918 -0.4058926 0.029983485
000030 1d 78 89 3e db 52 57 bf 7c 3a 06 3f 9c b7 1b 3c
       0.26849452 -0.841108 0.5243299 0.009504225
000040 40 ba e6 3c 3c 4c 12 bd ec c5 0f 3e f0 63 c2 3e
       0.028164983 -0.035717234 0.14040345 0.3796687
000050 fc 41 b1 be bc dc 65 bf 20 68 84 3e 49 85 1d 3f
       -0.34620655 -0.8978994 0.2586069 0.615315
000060 0c f1 e4 3d 3d be e0 3e 29 5b 37 bf 8e 14 7c 3e
       0.111787885 0.4389514 -0.71623474 0.24617216
000070 d2 e9 af 3e 02 94 1c bf 2c bf d0 bd 36 7d 41 bf
       0.34358078 -0.6116334 -0.10192713 -0.7558168
000080 53 77 ba 3f da 12 8f be e2 9b e6 be 36 fc 8d 3e
       1.4567665 -0.2794407 -0.45040804 0.27731484
000090 33 d8 2f 3f 96 5c 8c be 65 f0 75 3f 9b 3e 19 be
       0.6868927 -0.27414387 0.9606994 -0.14965288
0000a0 de c0 26 3e c7 45 a7 bd 1d 2f 30 3f 65 c1 27 bf
       0.1628451 -0.08167606 0.6882189 -0.6552947
0000b0 bb 6d e0 3e dc cf d1 be b0 63 97 3f cd 6d 49 bf
       0.43833718 -0.40978897 1.1827297 -0.7868317
0000c0 2a 77 da be 33 a7 d5 3e 81 5e d5 3e 3d a5 1b 3f
       -0.4266904 0.41729125 0.41673663 0.6079901
0000d0 f5 f5 f2 bf b8 10 b8 3f 2c 41 81 3c 47 bd 6a 3d
       -1.898131 1.4380102 0.015778147 0.057309415
0000e0 e4 c1 97 bd 79 26 6e bf af 27 da 3f 43 01 47 bf
       -0.074100286 -0.93027455 1.704336 -0.777363
0000f0 e0 ce 0c bd b5 cf 6b bd af 5f 1f bd b7 e1 21 3e
       -0.03437698 -0.05757113 -0.03890961 0.1580876
000100 cc 52 1c 3d 69 b3 9f be 31 cc 0b be a1 f8 04 3e
       0.0381649 -0.31191567 -0.13652112 0.1298547
000110 5b 47 67 bf 5f 40 e5 3d 1a 16 22 3b bd d5 b6 ba
       -0.90343255 0.111939184 0.0024732412 -0.0013949197
000120 ce eb 8e bf ac 77 dd 3f 87 55 cf be da ec d4 3e
       -1.1165712 1.7302146 -0.4049494 0.41586953
000130 21 b7 05 bf 94 94 2b bf e2 8a da 3d 7b 63 d3 bd
       -0.5223256 -0.6702359 0.10671021 -0.10321709
000140 ed 14 7e bd c4 66 11 bf 58 ae 17 bf 3d b1 77 3f
       -0.062031675 -0.5679743 -0.592504 0.9675482
000150 ab 6b 24 3f 2c 2e ab bf 26 16 25 3f 5b bc 67 be
       0.6422679 -1.3373466 0.6448692 -0.22630446
000160 2c 99 cc 3d 55 55 ac b9 af 5b 46 3e ab 51 86 be
       0.09990153 -0.00032869974 0.19370912 -0.26234183
000170 24 ce 65 bf e3 03 cd be 82 02 1a 3f 0b e1 a2 bd
       -0.8976767 -0.40042028 0.60160077 -0.0795308
000180 00 d6 26 3f 25 ab 98 bf a4 86 e9 3e 23 1a 5c bf
       0.6517029 -1.1927229 0.45610535 -0.8597738
000190 c2 cf f3 3e 75 4b 14 be 85 11 95 3f fb 10 77 3e
       0.47619444 -0.1448191 1.1645972 0.24127571
0001a0 04 c2 97 bf aa cd 51 be 12 50 e9 be dd 05 d3 bd
       -1.1856084 -0.20488611 -0.455689 -0.10303853
0001b0 ce 77 18 be 71 b2 a4 be 4c 82 18 3f 08 38 03 3d
       -0.14889452 -0.3216739 0.5957382 0.032035857
0001c0 99 dd ef bd 89 5d 37 bc c7 73 bc be 0c 4c 0e bf
       -0.11712188 -0.011191734 -0.3680708 -0.5558479
0001d0 ba 16 24 3f 84 4b 4d be d4 c0 29 3e 3b ec 0c bf
       0.6409718 -0.20048338 0.16577464 -0.5504796
0001e0 c3 18 9e 3e 98 c0 36 bf fa 9f a6 3e ba 2f 3c 3f
       0.30878267 -0.71387625 0.32543927 0.73510325
0001f0 60 9a 89 be 93 93 30 bf 09 16 72 3e 24 0a 3b bf
       -0.2687559 -0.6897518 0.23641218 -0.7306235
000200 29 f6 7f 3e 34 d9 86 3f 98 76 a2 3e 5c bd d1 3e
       0.24996246 1.0535035 0.31731105 0.40964782
000210 d9 b8 77 3e 6f e7 e5 3e 78 3c 8d be 89 78 0f 3d
       0.24191608 0.44903132 -0.27585196 0.03502706
000220 93 53 a4 bc 3a 9c a9 bd 73 7e 70 be 19 a3 99 be
       -0.020059383 -0.08281751 -0.23485737 -0.30007246
000230 1f 72 b1 3f 9d 8a f6 bd 8d fc 56 be 14 ba e3 3e
       1.3862952 -0.12038157 -0.20994778 0.44477904
000240 00 71 ea be 99 3b 30 3f c5 6e 1c bf dd f4 8b bf
       -0.45789337 0.6884094 -0.6110652 -1.0934101
000250 3c 69 c8 3e 81 e8 7e 3f ef 37 2b 3e 38 a4 93 3e
       0.39142787 0.9957352 0.16720556 0.28836226
000260 c4 61 fc be ca 00 2e be 90 c5 92 3e 0b 50 b1 3c
       -0.4929334 -0.16992489 0.28666353 0.021644613
000270 f6 6a 3b 3d 96 55 4f 3c f1 55 a0 3c 99 5c f2 3e
       0.045756303 0.012654683 0.01957223 0.4733627
000280 00 aa 05 3f b6 aa 87 3e fe f8 4c bf 96 7f cf 3e
       0.52212524 0.2649743 -0.8006743 0.40527028
000290 16 de 47 bd 58 00 a8 bd 9c 72 46 bb 43 83 ba 3d
       -0.048795782 -0.082031906 -0.0030280715 0.091070674
0002a0 61 20 19 bf fd e9 19 3e 78 3b 46 3e 4b b0 1e 3e
       -0.5981503 0.15030666 0.19358623 0.15496938
0002b0 68 93 c5 3e 1b 87 af 3e 9c 00 f0 bd 0f 4b 4c 3c
       0.38589025 0.34282765 -0.11718866 0.012469067
0002c0 f6 02 ca 3d 37 26 7a 3d 63 c9 ac 3f 1f c7 cb bf
       0.09863846 0.0610716 1.3498958 -1.5920142
0002d0 5f 9f 41 bf 8d 56 87 3d be 68 0b 3f 19 a9 18 be
       -0.75633806 0.06608305 0.544567 -0.14908256
0002e0 5f b6 bd 3e 56 77 1b be ff 0a 50 be 85 7d 42 bf
       0.370532 -0.15182242 -0.20316695 -0.7597278
0002f0 f1 fa 3c 3f 7b 84 65 bc 49 df 68 be d9 2c 8c bf
       0.73820406 -0.014008637 -0.22741427 -1.0951186
000300 af 31 c9 be db de f3 bd 5e 7f 67 3f 15 d3 fe be
       -0.39295718 -0.11907741 0.9042872 -0.49770418
000310 16 92 94 3e 4e f4 e5 3e 25 4b a0 be 2c 8c 90 bd
       0.29017705 0.44912952 -0.3130733 -0.07057986
000320 fd d0 34 3e 39 14 75 bf ab 6f 60 bf 24 a5 f6 3d
       0.17657848 -0.9573398 -0.8767039 0.12043217
000330 e8 e8 b8 3f 9d b4 19 bf 28 d3 62 bf c1 48 39 bd
       1.4446077 -0.6004122 -0.8860345 -0.0452354
000340 5f c3 ac 3c 33 6d 77 bd 11 c4 23 3f 3b 84 23 be
       0.021089254 -0.060406875 0.6397105 -0.1596841
000350 1d 97 de be 98 d1 84 be 96 16 97 bd 32 55 24 3e
       -0.43474665 -0.25941157 -0.07377355 0.16048124
000360 fe 7c 0e 3f 7d de 11 3f 8c c9 5f be b1 a4 57 3f
       0.5565947 0.56980115 -0.21854228 0.84235674
000370 49 e1 71 be 2a 65 0b bf ff 0b 8b bf 8e a1 78 be
       -0.23621096 -0.5445124 -1.0863036 -0.24280378
000380 16 a7 a5 3f 7b a0 02 3f 68 95 3f be 0d fd d0 3e
       1.2941616 0.51026124 -0.18709338 0.40818062
000390 51 3d 6a 3e 47 41 da bc 89 28 61 3f 67 20 b2 3c
       0.22874953 -0.026642455 0.87952477 0.021743966
0003a0 63 9e 15 3e ce 1e 0e bd de cc 04 3e fd 58 81 3d
       0.14611201 -0.034697346 0.12968776 0.06315801
0003b0 58 5e a4 be 11 50 fa 3e 24 f6 8b be d1 5a c2 bf
       -0.3210323 0.4888921 -0.27336228 -1.5183965
0003c0 cf 0f 28 be e4 df 29 be dc 1f 1d 3f 9b ea b5 be
       -0.1641228 -0.16589314 0.6137674 -0.35530552
0003d0 05 7d 7c 3f 9e 2b ea be 82 86 b5 bc 57 f0 16 be
       0.98628265 -0.45736402 -0.022158865 -0.1474012
0003e0 8a 17 90 3e 68 06 18 be 9d 30 72 3f 57 25 16 bf
       0.2814296 -0.14846194 0.9460543 -0.58650726
0003f0 20 d6 f3 bc 29 0b 65 bd ec b2 50 3e 87 0f 1d 3f
       -0.029765189 -0.055918846 0.20380753 0.6135182

conv2.bias f4 [16]
000000 23 b6 19 3d 3e f5 d6 bc d8 48 1a bd d3 38 e2 bc
       0.037527215 -0.026239987 -0.037667125 -0.027614987
000010 05 37 2c bc 5d 60 96 bc fd d5 44 bd a8 01 5b bd
       -0.010511165 -0.018356496 -0.048055638 -0.053468376
000020 bb 9b 33 3d 19 09 46 bc 2c 0c a5 bc 46 9f 57 bc
       0.043849688 -0.01208713 -0.020147406 -0.013160532
000030 50 a0 92 3d 0b 14 25 bd 0c 09 25 3c 9d ce ee 3b
       0.071594834 -0.040302318 0.010072958 0.007287814

fc1.weight f4 [128, 320]
000000 88 3e c8 bd 9a b4 6c 3e a9 3c 05 3e 7d 08 a6 be
       -0.09777552 0.23115769 0.13011421 -0.3242835
000010 19 a6 4c bf f7 78 91 3e a5 5c a6 be c7 68 a9 3e
       -0.79940945 0.284126 -0.32492557 0.3308775
000020 19 77 60 3f 0f 1a 73 be cf c4 f1 be 76 a7 a4 3c
       0.8768173 -0.2374041 -0.47220466 0.020099383
000030 5c 00 8c be 7b c7 3c be 51 aa 5a be fc 7b 0a 3f
       -0.27344024 -0.18435471 -0.21354033 0.54095435
000040 a3 20 95 bd 2d 20 1e 3e f6 1b 93 be 51 a1 b4 3e
       -0.072816156 0.15441962 -0.2873227 0.35279325
000050 92 b6 1e be 59 41 09 bf 68 16 4a be 82 b6 bf be
       -0.15499333 -0.5361534 -0.1973511 -0.3744393
000060 70 b7 e8 3d 6e 82 56 bf 8f 0a 4d 3d 96 d3 17 3f
       0.11363113 -0.8379277 0.050058898 0.5930723
000070 be 47 f7 be 98 ce 45 3d 39 d4 00 3f a9 e0 45 bd
       -0.48296922 0.048292726 0.50323826 -0.048309956
000080 b9 40 5b 3e 2d 06 a8 be f4 e2 c7 3d 34 8f a8 3e
       0.21411408 -0.32817212 0.09760085 0.32921755
000090 2f 6e fc bd c5 ec 62 be ba d0 ff bd 80 e4 6e 3d
       -0.12325703 -0.22160633 -0.12490983 0.058323383
0000a0 9b 01 02 be 26 d5 a2 be bd 64 ed 3e 81 f5 14 3f
       -0.12695925 -0.31803244 0.4636592 0.5818711
0000b0 3c 92 ce bd 00 47 6a be 9a e6 89 be 97 d1 85 3d
       -0.10086486 -0.22878647 -0.26933748 0.06534117
0000c0 20 c5 0f 3f 3b f9 2e 3e 11 e0 db be f8 53 a1 be
       0.56160164 0.17087261 -0.42944387 -0.31509376
0000d0 15 bb 89 3e 5d 72 f8 3e aa 2c 03 bf fa 8b c5 3c
       0.26900545 0.48524752 -0.51240027 0.024114598
0000e0 27 9b 4e be 70 7f 64 be 29 06 ab 3e ab d6 ff bc
       -0.20176373 -0.22314239 0.33403137 -0.031230291
0000f0 b2 ca 37 3f ca 5a 8d 3e 2c 48 96 be d7 c7 bc be
       0.71793664 0.2760833 -0.29351938 -0.36871216
000100 25 c3 dc 3e 73 e4 09 be 77 74 a3 bd a3 36 22 be
       0.43117633 -0.13466053 -0.07981198 -0.15841155
000110 a9 49 8e be 71 af 47 be 20 5a 19 be 5f bd 5c 3e
       -0.27790573 -0.1950052 -0.14975786 0.21556614
000120 d0 a8 da 3e 26 56 93 bd 1c bf 65 be be c8 b9 3e
       0.4270692 -0.07194166 -0.22436184 0.36285967
000130 16 2c 02 be 5e c3 14 3f b8 06 bd bd 22 2b d8 3e
       -0.1271213 0.58110607 -0.09229797 0.42220408
000140 7e ab 1b be 92 df 17 be ab b8 88 3e 22 dd aa bd
       -0.15202138 -0.14831379 0.2670339 -0.08342959
000150 c8 67 c6 bd 24 e4 16 bc fc 98 da be e6 42 e7 be
       -0.096877635 -0.009209666 -0.42694843 -0.45168227
000160 62 43 e6 3e f9 d2 64 be 3d 7b 85 3e c4 e0 69 3e
       0.44973284 -0.22346105 0.26070586 0.22839648
000170 01 5a 18 be 91 8d 0f 3f 9f 4b 50 3f e0 73 2c bf
       -0.14878084 0.5607539 0.8136539 -0.6736431
000180 3b aa 8d 3e e0 33 bf bd a4 1a ff 3d f2 95 89 bd
       0.27668938 -0.09336066 0.12456253 -0.06718053
000190 13 dc 2d be 6e 13 be bd 5c 47 46 bf 8a d5 ef 3e
       -0.16978483 -0.0928105 -0.77452636 0.46842605
0001a0 0c ec 00 3f 2a f2 99 be 54 4e 0b 3e fb 21 bb be
       0.5036018 -0.3006757 0.13604099 -0.36549363
0001b0 5e 02 67 be d6 7a 71 3f 38 a3 73 be ad c9 35 be
       -0.22559497 0.9432806 -0.23792732 -0.17752714
0001c0 61 d4 2b bd e0 f1 0f be d5 29 70 bd 71 94 b9 bd
       -0.041950587 -0.14057112 -0.058633644 -0.09061516
0001d0 6e f4 54 3e d7 ef 2b bf 0a a9 6e be 02 53 d8 3c
       0.20796368 -0.6716284 -0.23306671 0.026406769
0001e0 ec 43 3d 3e 45 9e a5 be 82 fb a4 3e 29 20 da 3d
       0.18482941 -0.32347313 0.32223135 0.10650665
0001f0 fa ec 6a be ca 3e cc bd 9c 87 4f be ff 4e 5a bb
       -0.22941962 -0.099729136 -0.20266575 -0.0033311245
000200 10 29 31 3f 15 f8 0d 3f 0f c6 8d be cb 03 77 3d
       0.6920328 0.5545667 -0.2769017 0.06030635
000210 eb c2 5b 3d ee c2 72 3e a0 59 1b 3d 34 d4 3d be
       0.053652685 0.23707172 0.03792727 -0.1853798
000220 32 e5 a2 3d 07 67 a7 3d f2 80 0d 3f 03 c9 8d be
       0.07953872 0.08173948 0.5527488 -0.27692422
000230 28 d0 83 3e 58 fc a4 3e da 4a 9e be 44 2a 94 be
       0.25744748 0.32223773 -0.30916482 -0.28938496
000240 fb f6 f2 be b7 e4 f6 3d 74 e7 94 3e 14 27 b6 bd
       -0.47454056 0.12055343 0.29082835 -0.08894172
000250 bf d1 2f 3e 46 3b 15 3f ab 83 68 3e 59 2e ff be
       0.17169856 0.5829357 0.22706477 -0.49840048
000260 58 3e a5 bd 5b 75 6b be 5c 03 93 bd 79 1c 44 3f
       -0.08068532 -0.22993986 -0.07178375 0.76605946
000270 21 b7 0c bf dc 19 a6 3e 3d 24 e2 be ee 64 67 3f
       -0.5496693 0.32441604 -0.44168273 0.9038838
000280 3f 23 9f 3e 49 b5 54 3e dd cf 98 bc 49 23 9a 3e
       0.31081578 0.2077228 -0.018653804 0.30105045
000290 9e bf 19 bf 44 8f 78 be 75 2c ec 3e 9c 9c dd 3e
       -0.6005801 -0.24273401 0.46127668 0.43283546
0002a0 a9 5e aa 3c c8 e7 14 3e ba 88 ab bd 4e 77 16 3f
       0.02079709 0.14541543 -0.08375688 0.58775795
0002b0 f3 90 e7 be 85 ee 40 bf 20 b8 99 3d f2 73 42 bf
       -0.45227775 -0.7536395 0.07505822 -0.7595817
0002c0 39 fc a2 be fa e9 45 be 20 83 17 3e 03 08 9d be
       -0.31833056 -0.19327536 0.14796114 -0.30670175
0002d0 bb 70 ff bd bf 35 a5 3b 6c 81 8a 3d 81 13 c9 be
       -0.124726735 0.0050418074 0.067629665 -0.39272693
0002e0 02 89 0f bf 30 9d c3 be 33 84 11 3f 17 87 3b be
       -0.5606843 -0.38205862 0.56842345 -0.18313251
0002f0 29 7d b8 3d 50 fa 9c 3e fb 64 7c 3c 8b 63 c3 be
       0.090082474 0.30659723 0.015404935 -0.38161883
000300 eb 21 eb 3e f4 78 24 bd 2a 8b 2f be 4f a1 eb bd
       0.45924315 -0.040154412 -0.1714293 -0.115053765
000310 9c 4c b7 be be 02 db 3e 3f 7e 4a bf 10 13 18 3d
       -0.35800636 0.4277553 -0.79098886 0.037127554
000320 d1 be 92 3e d5 28 96 3e 04 39 6c 3e 54 66 3d 3e
       0.28661206 0.29328027 0.23068625 0.18496066
000330 53 3b 53 3d 2b e9 bb 3d 94 cc b3 ba 9e 73 ac bd
       0.051570248 0.09175333 -0.0013717585 -0.0842049
000340 e8 f2 f1 3e 08 20 3d be d3 76 ad be 6c 52 54 be
       0.47255635 -0.1846925 -0.33879718 -0.20734566
000350 9b 29 5e be 0b 66 25 3f e4 cd d6 bd 98 3d 7f 3e
       -0.21695559 0.6460883 -0.10488489 0.2492584
000360 46 39 c7 be bd 86 65 be 02 b6 0c 3e da ff 22 be
       -0.38910884 -0.2241468 0.13741305 -0.15917912
000370 03 99 44 3e 17 f5 6f 3e 12 fa d1 bc 20 85 ad be
       0.19198994 0.23433338 -0.025631938 -0.3389063
000380 1c 44 78 3e 83 35 82 3d d7 10 fb bc e2 5d 6c 3e
       0.24244732 0.06357863 -0.030647678 0.23082688
000390 13 51 f1 3d d0 f8 80 3e e4 fc b8 bd c6 78 07 bf
       0.11783042 0.2518983 -0.0903261 -0.5291866
0003a0 5c 65 08 bf 32 b0 be 3e 84 71 d3 be c2 a7 f8 3e
       -0.5327966 0.372438 -0.41297543 0.4856549
0003b0 00 ed 55 bc 45 bc 95 3e 66 a0 2e be 23 c6 ce 3e
       -0.0130569935 0.292452 -0.17053375 0.4038554
0003c0 4a fc 2b bf 51 b9 b3 be e9 33 06 3f 93 d0 63 3e
       -0.6718184 -0.35102323 0.5242296 0.22247534
0003d0 e4 4b 50 be 91 2e 7a bd 0b ea 91 be 2e 3e 6a 3e
       -0.2034145 -0.061079565 -0.28498873 0.22875282
0003e0 d2 5d 94 3e 5a 39 9a be 20 3d cc be db e6 23 3e
       0.2897783 -0.3012188 -0.39890385 0.16006033
0003f0 17 3b 14 be d0 84 9b be 9f 46 bf 3e c7 cd a2 be
       -0.14475666 -0.30374765 0.37358567 -0.3179762

fc1.bias f4 [128]
000000 0c 29 7f be ed 53 47 3e 0c dd 55 bd a7 de c3 3d
       -0.24918002 0.19465609 -0.05221276 0.09563952
000010 55 09 64 be 81 7d 8d bd 75 d6 08 3d 8f 94 0f 3f
       -0.22269185 -0.069087036 0.033407647 0.5608606
000020 23 76 90 be 99 1b 96 be 35 c0 91 be 95 ac 21 3e
       -0.2821513 -0.2931793 -0.28466955 0.15788491
000030 80 d7 8e bd 2c 80 6a 3d 4f 4c f0 bd a2 1c 34 3e
       -0.06974697 0.05725114 -0.11733305 0.17589048
000040 67 bf 4e 3d e2 e3 62 be 8f e0 f1 3d cf 58 47 3d
       0.050475504 -0.22157243 0.11810409 0.04866868
000050 70 48 8e 3e c7 cc 08 3e 0c 96 22 3e ca 2e b5 bd
       0.2778964 0.13359366 0.15877551 -0.08846815
000060 11 90 fe 3e e9 18 e5 bd 4c a4 9c 3e e1 da ee 3e
       0.4971929 -0.11186392 0.305941 0.46651366
000070 39 51 34 3d 82 75 b2 bd 99 63 7d 3e 6d 9a 3d bf
       0.044022772 -0.08713819 0.24745025 -0.7406376
000080 1d 22 81 3c f6 a4 a9 3e fc 7f a1 3d 93 c3 45 3e
       0.015763337 0.33133668 0.07885739 0.19312887
000090 bc 5e 88 bc 71 66 d0 3d bc dd ab 3b 41 b0 d1 3e
       -0.016646735 0.10175789 0.0052449387 0.40954784
0000a0 9b 20 69 bd c7 ec e7 bc 71 d3 f2 bd a7 9d d2 bd
       -0.05691586 -0.028311146 -0.118567355 -0.10283976
0000b0 83 b7 97 3d 97 4c 44 bd ae ae 6b 3c d0 37 4f 3e
       0.07408049 -0.047924604 0.014384909 0.20236135
0000c0 e7 9c 83 3c 6e bd 71 be e2 9b 2b be c1 89 24 3e
       0.016066028 -0.23607418 -0.16758683 0.16068174
0000d0 f3 0d 33 be 91 9e bf bd 3c 3b 8f be 5c e1 1c be
       -0.1748579 -0.09356416 -0.2797488 -0.15320343
0000e0 18 75 0b 3e 9c 72 16 bf c6 76 91 3e de b5 19 be
       0.13618886 -0.5876863 0.2841093 -0.15010783
0000f0 38 8b 8e 3d 94 5d 3f bd ca 0a 35 3c b5 be c5 bf
       0.069601476 -0.046720102 0.011049936 -1.5448824
000100 be c5 80 3b 45 48 c5 3d 5d 3b 14 3e 95 b6 e9 bd
       0.0039298227 0.09632925 0.1447577 -0.11411778
000110 78 6e 22 bd f9 d5 80 3c 1b eb 25 bf 16 dd 7c 3c
       -0.039656132 0.01572703 -0.6481187 0.01543357
000120 f2 b4 1a 3f 59 2e 5f 3e 09 f8 8c 3e 14 4f b1 bb
       0.6043235 0.21795024 0.27532986 -0.005411038
000130 a2 98 2c bd 39 77 a8 be 6a 66 a6 be bb 6a a3 3e
       -0.04213775 -0.3290346 -0.3250001 0.31917366
000140 9d 36 d1 3e 2f a3 9b 3e c8 c7 51 3d 5b b5 fa be
       0.4086198 0.30397937 0.051215917 -0.48966488
000150 06 69 a4 be 40 2a 93 bc 60 e5 27 3e d9 b2 19 3f
       -0.32111377 -0.017964482 0.16396093 0.60038525
000160 30 54 4f 3d 6a 4e 84 3c 6a bc da bd bd ba 3b be
       0.050617397 0.016150672 -0.106804684 -0.18332954
000170 d9 93 90 be fb 53 3d be 22 19 71 be 74 ce c8 3d
       -0.282378 -0.18489067 -0.23544744 0.09805003
000180 a0 22 32 bf 73 b2 07 bd 64 e8 48 be bc 69 9e bd
       -0.69584084 -0.033129167 -0.196199 -0.07735011
000190 68 e8 2c 3d ac 7d a6 3c 0d 29 c9 3e 1b 56 9c bc
       0.042213827 0.020323597 0.39289132 -0.019084027
0001a0 28 a7 c1 be f1 64 63 bc 7f 88 b6 3c e5 f2 7a bd
       -0.37822843 -0.013879047 0.022281883 -0.0612668
0001b0 c0 2b 17 be 49 61 30 be ea 00 b9 bc f6 78 22 bf
       -0.14762783 -0.17224611 -0.022583444 -0.6346582
0001c0 20 06 cb bd bd 3b a9 bd 93 59 10 be 25 9d 3b be
       -0.099132776 -0.08263347 -0.1409667 -0.18321665
0001d0 39 00 3f 3d 59 bb 0e be 08 f9 62 3d de 37 0a bf
       0.04663107 -0.13938655 0.055413276 -0.53991497
0001e0 3c b1 93 be d2 17 82 3d f2 32 e7 3e 94 33 32 3e
       -0.28846157 0.063521996 0.45156056 0.17402488
0001f0 4b 57 68 bc 4a 8b 1a be 7a c8 15 3e 7b b5 c7 bf
       -0.0141809685 -0.15092197 0.14627257 -1.5602258

fc3.weight f4 [1, 128]
000000 95 b7 1e 3d 1e cb d5 bc 9e d3 aa 3b 6d db 93 3b
       0.038749296 -0.02609783 0.005213215 0.0045122416
000010 8a 09 7f 3c d0 ea e0 b8 25 d7 bd 3c 14 87 ca 3c
       0.015566239 -0.000107248896 0.023173878 0.024722613
000020 79 e5 39 bc 16 de c9 bc e8 fe ff 3c a4 b9 77 bc
       -0.011346214 -0.024642032 0.031249478 -0.015119944
000030 7c 5e 0b 3c 38 3a 32 bb ec 25 9f 3a 2e 4a 1e 3c
       0.008506414 -0.0027195346 0.0012142039 0.0096612405
000040 47 e7 59 3c 1e 1f ab bc eb 29 00 bc d9 3d 9f bc
       0.01329977 -0.020888861 -0.007822494 -0.019438671
000050 ac 88 58 bb a2 ca 17 bd a5 21 2a bc 85 59 df 3b
       -0.0033040447 -0.03705848 -0.010383998 0.0068160915
000060 3b df 01 bd d2 76 34 bc e2 71 05 bc 5c e8 ff 3b
       -0.03170703 -0.011014657 -0.008144828 0.007809682
000070 60 25 4c bc 3d e8 df bc 95 c6 83 bc 53 d7 03 3d
       -0.012460083 -0.02733242 -0.016085902 0.03218777
000080 76 a8 de bb 7b 1c 6c 3d 53 c9 02 bd af be 08 bd
       -0.0067949845 0.05764435 -0.03193028 -0.033384975
000090 fe 82 25 3c bc 4d 6d 3c fd e2 69 3b 78 72 48 bc
       0.010102032 0.014483865 0.0035688274 -0.012234323
0000a0 c8 d7 6e ba 72 01 4c 3c 8b ce ad 3b 4e 3f 28 bc
       -0.00091111334 0.012451516 0.005304163 -0.010268999
0000b0 b4 cc 72 ba 53 5a 4c bc 58 9f af bc 28 11 aa 39
       -0.00092620705 -0.012472707 -0.021438286 0.0003243771
0000c0 4a ee b3 bb 02 c1 7d bb 09 3d 0a 3c 5b 8a eb 3c
       -0.0054910528 -0.0038719778 0.0084374035 0.028752496
0000d0 91 9b e9 3c b8 7f d3 3a af 0a 13 bd 02 fd 01 3c
       0.028516563 0.0016136086 -0.03589886 0.007933857
0000e0 0d 84 14 bd ff 85 05 3c b0 0a d9 bc ba b0 05 3c
       -0.036258746 0.008149623 -0.026494354 0.008159811
0000f0 75 98 38 bc 04 09 e4 ba 63 54 aa 3b 3f f2 f0 ba
       -0.011266817 -0.0017397706 0.005198048 -0.0018382742
000100 08 fc 04 3d 0b e1 6d bc 3e bb d8 bc 0e 1e 76 bc
       0.03246692 -0.014518986 -0.026456472 -0.015021814
000110 6a 4f 0e 3a 26 9a 50 3b a2 3f 7d bc 10 c0 91 bc
       0.0005428704 0.003183016 -0.015457066 -0.017791778
000120 8d 6f 5c bc 0d 93 71 bc 30 e1 14 bc 3c 84 01 3c
       -0.01345433 -0.014744532 -0.009086892 0.007905062
000130 94 1f 71 bc bc 5f 3a bd ab 11 e9 3b fa 01 02 bc
       -0.0147170015 -0.045501456 0.007112702 -0.007935042
000140 36 d9 15 bd 68 59 e7 bb 0c 64 a3 3b 9d ae a7 3b
       -0.0365841 -0.0070602186 0.0049862918 0.005117251
000150 6d a4 0c 3c 93 94 b7 bb 1c 92 e8 bb ce d8 2b bc
       0.008584124 -0.005602428 -0.0070974957 -0.010488702
000160 2b 31 14 3d ed d2 69 bc d6 88 7d bc 97 b7 9f bc
       0.036179703 -0.01427148 -0.015474519 -0.019496722
000170 c9 30 39 bc 7d d4 f1 3c 34 96 02 3c 84 bc b8 bb
       -0.011303135 0.029520268 0.0079703815 -0.005637707
000180 0a 0f d6 3a 78 5c 74 ba 3f 97 02 bc 24 3f a0 3c
       0.0016331386 -0.000932164 -0.00797063 0.019561358
000190 db c0 7a 3c 71 98 82 bb 98 0c 26 3c 2c 6e cb 3a
       0.015304769 -0.0039854576 0.0101348385 0.0015520505
0001a0 ac ec 86 bb f2 4d 17 bd 50 99 66 ba ac bb 19 bd
       -0.004117569 -0.03693957 -0.0008796649 -0.037532493
0001b0 e4 f4 65 3c e8 f9 de 3c 00 c1 ab 3a 3e 39 a0 bc
       0.014035437 0.027218774 0.0013103783 -0.019558545
0001c0 d6 17 e4 bb 64 68 d9 bb cc 21 55 39 d9 3b 09 bc
       -0.0069608493 -0.006634759 0.00020325853 -0.008376085
0001d0 d5 f9 15 bd c3 03 ea bb 13 21 88 bc b0 a0 d3 bc
       -0.03661521 -0.0071415617 -0.016617334 -0.025833458
0001e0 30 20 97 bc fe bc 88 3c d4 03 03 bd 26 55 dc 3c
       -0.018447965 0.016691681 -0.031986073 0.02689607
0001f0 c3 1c e9 bb e6 72 97 39 98 87 25 3c bb 81 c3 3e
       -0.0071140244 0.0002888657 0.010103129 0.38184914
